----------------------------------------------------------------
        Layer (type)               Output Shape         Param #
================================================================
            Conv2d-1          [-1, 128, 60, 60]           3,328
         MaxPool2d-2          [-1, 128, 30, 30]               0
            Conv2d-3          [-1, 256, 26, 26]         819,456
         MaxPool2d-4          [-1, 256, 13, 13]               0
            Conv2d-5            [-1, 128, 9, 9]         819,328
         MaxPool2d-6            [-1, 128, 4, 4]               0
            Linear-7                  [-1, 512]       1,049,088
            Linear-8                  [-1, 128]          65,664
            Linear-9                   [-1, 15]           1,935
       LogSoftmax-10                   [-1, 15]               0
================================================================
Total params: 2,758,799
Trainable params: 2,758,799
Non-trainable params: 0
----------------------------------------------------------------
Input size (MB): 0.02
Forward/backward pass size (MB): 6.14
Params size (MB): 10.52
Estimated Total Size (MB): 16.68
----------------------------------------------------------------
None
Epoch 1
…
